src/ljh/model.tflite (tflite, 14704 bytes, 10 tensors)

sequential_2/dense_5/MatMul f4 [35, 10]
000000 58 6c a4 be d0 7f 03 bf 5a cb 6f be ed 7f f7 3d
       -0.3211391 -0.513669 -0.23417416 0.12084947
000010 49 47 2a 3e 0b a5 73 3e d3 33 a6 be 36 f5 dc bd
       0.16628756 0.23793428 -0.32461414 -0.10788958
000020 6b a5 a6 3e ae ec 2c be d3 4f b2 3e b2 c4 b9 be
       0.3254808 -0.16887161 0.34826526 -0.3628288
000030 2c 1b b5 bc 25 cf f2 be 3e 92 2c bf 96 0c c1 3e
       -0.022107683 -0.47423664 -0.6741065 0.37704915
000040 c2 d7 56 bf 30 ca 8e be 28 3c f6 3e 7d 31 29 bf
       -0.8392297 -0.27888632 0.4809277 -0.6609114
000050 55 68 89 be 4d e7 ad bf 16 2e 99 3e 24 b5 ae be
       -0.26837412 -1.3586212 0.29917973 -0.34122574
000060 fa c6 a1 3e 01 d6 9a be 0d f0 e8 be 34 d4 8b 3e
       0.3159712 -0.30241397 -0.45495644 0.27310336
000070 f5 60 17 3e ec a4 91 3e 3b e9 86 3d 91 8c 80 bc
       0.1478308 0.28446138 0.06587454 -0.015692027
000080 d3 81 b9 3e 52 91 c0 be ae 44 78 be ca fa 37 be
       0.3623186 -0.3761087 -0.24244949 -0.17966762
000090 49 dd 56 bf 9b 0c ad be 07 23 ca 3e ab de 78 3e
       -0.83931404 -0.3379868 0.3947985 0.24303691
0000a0 89 8c 96 3e d6 53 0d 3e 63 13 45 3e 3a 2b c8 3d
       0.29404095 0.13801512 0.19245677 0.0977387
0000b0 fd 11 8b 3e ca f5 df bd b5 96 15 3d 91 33 c1 be
       0.2716216 -0.109355524 0.03652068 -0.37734655
0000c0 7e 1e f3 3d 40 67 0b be 5e d9 ac 3e 4f 42 43 be
       0.1187105 -0.13613605 0.33759588 -0.19068263
0000d0 8a ce 34 3e bd d7 99 3b b6 7c 45 3e 49 5d e3 bd
       0.17656913 0.0046949075 0.19285855 -0.11101777
0000e0 34 88 38 bd 2a 15 b0 3b e1 80 cc bd 8b 5d 3d 3c
       -0.04505177 0.0053736167 -0.09985519 0.011557947
0000f0 48 ec 38 bc 5d 15 a4 3e 50 79 1d be 65 d6 f4 be
       -0.011286803 0.3204755 -0.15378308 -0.4781982
000100 b4 14 29 bf 2f cd e5 3e 9a 87 29 be 77 13 ea 3d
       -0.66047215 0.44883105 -0.16555634 0.11429494
000110 ac 79 e1 be a3 91 10 bf fa fe a0 be 9b 6c 67 be
       -0.4403814 -0.56472224 -0.31444532 -0.22600023
000120 49 fc d2 3e fc 16 13 be d6 08 54 bf 7c db 45 bf
       0.41208103 -0.14364237 -0.8282598 -0.7728803
000130 26 08 5f 3e 93 0a b8 3d ea 32 96 be 87 8b a3 be
       0.21780452 0.08986392 -0.2933572 -0.31942388
000140 27 9b 08 3e 72 3c 2b 3e 19 44 ee bd 13 f1 f9 3e
       0.13340436 0.16722277 -0.11634082 0.48816738
000150 0a ef da 3d 75 93 72 be 91 c4 84 3e da 4c 06 bf
       0.10690124 -0.23689063 0.25931218 -0.52461016
000160 65 58 81 be eb dd b2 bb 5f 13 a7 be 79 ec c8 be
       -0.25262752 -0.0054585836 -0.32631966 -0.39242914
000170 43 8d d2 be 65 25 c6 3e 35 5b d1 3e 83 15 81 bf
       -0.411234 0.38700405 0.40889898 -1.008469
000180 a6 dd 63 3e 89 06 20 be fe 40 df be dd bb ee bd
       0.22252521 -0.15627493 -0.43604273 -0.11656926
000190 2f 76 9c be c6 90 96 3e 93 9a a0 be 79 7e 26 3e
       -0.30558917 0.29407328 -0.3136793 0.16259183
0001a0 20 81 fc be 26 7e 42 3e 61 46 f2 3d 1a 84 3b 3e
       -0.49317265 0.18993434 0.1182983 0.18312111
0001b0 78 6d f7 be c6 f6 5f bf 4a 95 5b be 4c 5e 61 be
       -0.48325706 -0.8748592 -0.21443668 -0.22008628
0001c0 7e 31 3c 3e 70 b1 88 3e 12 a8 17 bf 2a 0f 6a bf
       0.18378255 0.26697874 -0.5924083 -0.9142939
0001d0 dd 98 02 3e 66 a3 91 3e 9a 64 0d be cb b4 86 bf
       0.12753625 0.28444976 -0.13807908 -1.0523924
0001e0 fa 15 54 be dd 60 49 bf f3 28 c6 3d 64 89 6a bf
       -0.20711508 -0.78663427 0.09675779 -0.9161589
0001f0 41 4c 72 be dd 8d 9d bc 8b 9e c4 bc 64 ee f0 3e
       -0.23661901 -0.019232685 -0.02400138 0.47056878
000200 18 ad dd 3d 95 ca ad 3c 9d 23 69 3e 5e b6 23 bf
       0.10824031 0.021214763 0.22767492 -0.63950145
000210 b5 3e 04 bf 5f f3 0e 3e 3a 36 20 3d db 49 ce 3e
       -0.51658183 0.13960026 0.039114214 0.40290722
000220 05 c2 24 bf d9 d7 bc 3e d2 a9 40 3e 54 ec 25 be
       -0.6435855 0.3688343 0.18814781 -0.16203433
000230 e1 86 2b be 37 f0 95 be e6 c6 90 be b6 f9 41 be
       -0.16750671 -0.29284832 -0.28276747 -0.18942913
000240 d5 53 b4 3e df 17 ab 3e b1 95 b0 be ef 58 31 be
       0.3522021 0.3341665 -0.34489205 -0.17319082
000250 cd 55 6e be ba 8d 7e 3e 02 48 22 3e e7 02 0c bf
       -0.23274918 0.24858752 0.15847781 -0.5469193
000260 30 d6 6c 3e 3f 16 d5 bd b1 98 0a bf d9 3f d4 3e
       0.23128581 -0.10404634 -0.5413924 0.41454962
000270 b8 7c 99 3d a5 a5 5c be cc df 60 bd 1e 56 31 bf
       0.07494491 -0.21547563 -0.05490093 -0.6927203
000280 63 31 4b be 5f ef 27 3d ed 91 04 3e 7b bf 5f bf
       -0.19843058 0.040999766 0.12946291 -0.8740155
000290 9f d7 11 3f 6f f3 88 be 46 65 36 bf 4d 58 01 3e
       0.56969637 -0.26748225 -0.7124828 0.1263134
0002a0 fe a8 a9 bd b5 74 c5 be b1 71 a2 be 8f 07 cd 3d
       -0.08284186 -0.38565603 -0.31727365 0.10011207
0002b0 05 99 93 3e dc 14 9c be c5 29 2b 3e bd 4f a9 3e
       0.28827682 -0.30484664 0.16715153 0.33068648
0002c0 2a a7 96 be 0c 69 be be 26 8a b6 be 01 dd 25 bf
       -0.2942441 -0.3718952 -0.35652274 -0.6479035
0002d0 0b f3 51 be bc 79 28 bf 07 c3 58 bd 27 29 6a bc
       -0.2050287 -0.6581075 -0.052920368 -0.014292038
0002e0 08 18 95 3e d6 7b 44 3e e3 8b 0e be 00 21 66 3e
       0.29119897 0.19187865 -0.1392055 0.22473526
0002f0 7d e1 9f be 3c 20 8e be 5a 5a b0 3e 4c e6 78 bd
       -0.3122672 -0.27758968 0.34443933 -0.060766503
000300 6a f6 20 bd 7e 65 f0 3d c0 1d 82 be 24 68 a2 be
       -0.0392975 0.11738108 -0.25413322 -0.31720078
000310 b5 0d 6b be 0f 2e e8 3e b6 fd 8c bf ca 8b e3 bd
       -0.22954448 0.4534764 -1.1014926 -0.11110647
000320 e5 d7 3e bd 36 2a 37 bf 8a 35 92 be 3d 5b c6 3e
       -0.04659261 -0.71548784 -0.28556472 0.38741484
000330 57 7c c0 3c ca 64 c1 3d ad 46 58 bf 1f 28 6b 3d
       0.02349679 0.09443052 -0.8448284 0.05741131
000340 54 d4 cc 3e 25 c1 16 3e 6a b4 40 3e b7 f6 1c 3e
       0.40005744 0.14722116 0.18818823 0.15328489
000350 20 48 82 3e b5 8c 5b be 73 64 6a 3c 64 0e 79 be
       0.25445652 -0.21440394 0.0143061755 -0.24321896
000360 c8 4d 8a be 45 97 f0 3d fc 66 42 bf b2 5b 99 be
       -0.27012467 0.117476024 -0.7593839 -0.2995277
000370 62 36 79 be d4 b8 a3 be ce 54 ba bd 71 8d 4d be
       -0.24337152 -0.3197695 -0.090982065 -0.20073487
000380 c8 0c 6e 3e 2b a6 05 be 75 68 69 3e c2 54 bc 3a
       0.23247063 -0.1305167 0.22793753 0.0014368522
000390 47 9f 63 3d 90 0b a7 bc fc 0b e0 3c ed c4 59 be
       0.05557182 -0.020391256 0.027349465 -0.21266527
0003a0 54 af 2f 3e 6b f9 64 3e 32 c5 3a bf 91 ed 95 3e
       0.17156726 0.2236077 -0.72957146 0.2928281
0003b0 3b 1d 63 bf 55 c6 20 be f0 b8 c6 bd 4c 80 ab 3d
       -0.8871648 -0.15700658 -0.09703243 0.0837408
0003c0 42 e9 8a 3e 83 44 2d bf 69 30 1e 3e 23 3f 94 bd
       0.27131087 -0.67682666 0.15448155 -0.07238605
0003d0 21 67 08 bd b6 7b a8 3e 1e 18 a3 bf fd 9d 98 3e
       -0.033301476 0.32906884 -1.2741735 0.29808035
0003e0 b9 2a c4 bd 11 c2 05 bf 23 b1 dd bc 9f fd 6b be
       -0.09578461 -0.52249247 -0.027062004 -0.23045968
0003f0 8e c2 86 3e bb 26 d0 be 9d 10 32 be 36 07 27 be
       0.26320308 -0.4065455 -0.1738915 -0.16311345

sequential_2/conv1d_6/BiasAdd/ReadVariableOp f4 [32]
000000 55 06 a7 bd 43 7b e1 3c 37 a4 ba 3c de 9d a0 3d
       -0.081555046 0.027524596 0.022783382 0.07842611
000010 67 28 98 3d b4 f6 11 3d 1f 50 88 3c b7 a5 99 3d
       0.07429581 0.035635665 0.016639767 0.07502311
000020 5c 34 50 3e cc cc 4c 3e a5 eb 5a 3c d9 19 68 3e
       0.20332474 0.19999999 0.013361846 0.2266611
000030 4f 31 4a 3e 53 70 0b 3e 18 7d 47 3e c7 d8 13 3e
       0.19745372 0.13617067 0.19481313 0.14438163
000040 1d 8b 43 3e 08 13 63 bc 54 95 24 bd 46 cc 1c 3e
       0.19096036 -0.013859518 -0.040181473 0.15312299
000050 ee 4d 41 3b 66 af 49 3e 42 4d 72 3c 62 86 57 bc
       0.0029495913 0.19695815 0.0147889275 -0.013154598
000060 c3 e6 59 3e 36 ea 9c 3e cf 68 2d 3a e7 7d 93 3e
       0.21279435 0.3064744 0.0006615044 0.28806993
000070 2f ff 26 bd e2 26 6d 3c 9b 1c 71 bd 09 da 0e 3d
       -0.040770706 0.014474602 -0.05886517 0.034875903

sequential_2/conv1d_7/BiasAdd/ReadVariableOp f4 [10]
000000 b7 93 a9 bd aa 3b 12 3d 62 62 b4 bc 9c 4e ac bd
       -0.082801275 0.03570143 -0.022019569 -0.08413431
000010 20 7c 42 3e cb 7d 83 3c 3d 3d b3 3d 8b 7b 4b 3d
       0.18992662 0.016051194 0.08751915 0.049678367
000020 bc 8e 10 be 1f 1e 1e bd
       -0.14116949 -0.038602944

sequential_2/conv1d_8/BiasAdd/ReadVariableOp f4 [10]
000000 0d 05 55 bd ea 80 55 3d eb e2 86 bc d2 c5 26 3e
       -0.05200677 0.052124895 -0.016465625 0.162864
000010 89 07 8d 3d 9e 45 86 bd 45 aa b4 be 36 6c 42 3e
       0.06886203 -0.06556247 -0.35286155 0.18986592
000020 a5 9f 17 3d 4c 92 a3 3d
       0.037017483 0.07986888

sequential_2/conv1d_6/Conv1D f4 [32, 1, 3, 3]
000000 a3 83 1e be 20 20 2a 3f 06 51 97 bd 9e 24 c0 3c
       -0.15479903 0.6645527 -0.07388501 0.02345496
000010 40 64 55 3f f6 f6 a1 be 35 ab 87 3e ba 4f 69 3f
       0.83356094 -0.3163373 0.26497808 0.9113728
000020 cd 20 76 be 8d 43 20 ba 72 7c 07 bf bc 96 03 be
       -0.2403595 -0.00061135815 -0.52924263 -0.1285047
000030 0d 16 22 bf 74 14 26 bf d6 d2 94 be e6 6f 36 bf
       -0.63314897 -0.6487496 -0.29067105 -0.71264493
000040 8e 81 64 bf d7 0a 0d be ab 44 2a 3f 2e 71 82 be
       -0.89260185 -0.13773666 0.6651103 -0.25476974
000050 f8 cf 8b 3d 0d f1 2a 3f 03 49 c3 be 00 95 26 bd
       0.06826776 0.66774064 -0.3814164 -0.04066944
000060 e4 68 2b 3f 1d d9 75 be d8 96 06 3e 64 99 0c be
       0.66956925 -0.24008603 0.1314348 -0.13730389
000070 75 d2 18 bf aa b7 50 bd fe 53 93 be 25 a6 36 bf
       -0.5969613 -0.050956406 -0.28775018 -0.71347266
000080 a6 42 a3 3d 9b 69 46 be 70 64 29 bf be 13 5f be
       0.079716966 -0.19376223 -0.6616888 -0.21784875
000090 32 fe 92 be 8f 73 28 3d fb 39 0d bf 49 5c 04 bf
       -0.2870956 0.04112583 -0.55166596 -0.51703316
0000a0 3a f3 b4 3e ec dd 13 bf 6d ee a4 be fa 7e 1c 3e
       0.35341817 -0.577605 -0.32213154 0.15282813
0000b0 89 e0 18 bf a1 90 56 bf ae 98 7c be e0 eb cc be
       -0.59717613 -0.83814436 -0.24667618 -0.40023708
0000c0 aa fd 33 bf 16 ca 2d be 1b 99 4d be 6c b9 2f bf
       -0.70308936 -0.16971621 -0.20077936 -0.68642306
0000d0 60 1a 17 3c fb ce 27 be 35 22 35 bf f5 44 e1 3d
       0.009222597 -0.1638755 -0.7075532 0.10999481
0000e0 61 e6 33 3d 9b 17 f8 be a6 ad 7c 3a 26 ba 9e 3b
       0.04392088 -0.4845551 0.0009638913 0.004843968
0000f0 c6 3a 3f bf 99 37 92 be 92 b0 81 bd 4e 35 16 3f
       -0.74699056 -0.28558043 -0.06332506 0.58675086
000100 bf 53 ab 3b 14 6a 82 be 04 8b 25 3f a2 09 bc 3e
       0.005228489 -0.25471556 0.64665246 0.367261
000110 a2 f4 e9 be e3 eb 97 3e ce 99 2c 3e 39 92 f9 be
       -0.45694453 0.29672155 0.16855547 -0.48744372
000120 c3 b9 2a 3f e9 e8 0f 3e e2 92 d4 be 6c af 67 3f
       0.666897 0.14053692 -0.41518313 0.9050205
000130 11 2c bd bd 7e b6 b4 be 3e fc ee 3e 77 db a6 3d
       -0.092369206 -0.3529548 0.4667682 0.08147328
000140 30 a8 09 be 48 ec e8 3e 61 b6 95 3d 04 3f dc be
       -0.13443065 0.45492768 0.07310177 -0.43016827
000150 bd 72 3f 3f 4a 27 27 bc ac 5d ab be b0 84 18 3f
       0.7478445 -0.010202238 -0.33469903 0.59577465
000160 40 69 ed 3e 37 df f1 be 89 d7 d0 be 47 c6 79 be
       0.46369362 -0.47240612 -0.4078944 -0.24392043
000170 cf c3 bc bd 16 cf e9 be 52 ac f3 be ad 2f 82 be
       -0.09217035 -0.45665807 -0.47592407 -0.25427
000180 1d 05 15 bf 87 98 54 be 56 52 a7 be ac 78 db be
       -0.5821093 -0.2076131 -0.32680005 -0.42865503
000190 e3 bd 1a 3e 9e f2 32 bf e0 4f cd be 55 cc a1 3e
       0.15111499 -0.69901454 -0.40100002 0.31601205
0001a0 b9 82 18 bf a1 8a 27 bf 9d cc 9c 3e d4 cd 15 bf
       -0.59574467 -0.65445906 0.30624858 -0.58517194
0001b0 17 14 2b bf cb fc 99 3e a0 75 e1 bd fd 7b e4 be
       -0.6682753 0.30075678 -0.11008763 -0.44625846
0001c0 15 82 83 3d 78 f2 48 be 7c 00 2e bf 90 99 f5 3d
       0.064212956 -0.19623744 -0.6796949 0.1199218
0001d0 1f 08 b7 3d 97 71 04 bf cd 4e 93 3e 7e 42 c3 be
       0.08937096 -0.51735824 0.28771058 -0.38136667
0001e0 2b be 3b bf 52 33 77 3e 30 03 15 be 84 02 9e be
       -0.7333705 0.24140671 -0.14551997 -0.30861294
0001f0 64 7a 01 be 69 d1 b5 be 31 ac 34 3f 3a f8 27 be
       -0.12644345 -0.3551133 0.70575243 -0.16403285
000200 39 61 ef 3d 67 91 2a 3f 27 3e a5 be 7a 27 f9 3c
       0.116884656 0.66628116 -0.3227398 0.030414332
000210 43 06 b8 3e 4a 9e e8 be 8b dd 99 3d b9 df 47 3e
       0.35942277 -0.45433265 0.07512959 0.19518937
000220 01 bb 4d 3e 64 74 6d be f6 46 9e 3e 55 5c e4 3e
       0.20090868 -0.23188931 0.30913514 0.44601694
000230 4c c8 29 bf b5 be e2 3e 7b 7c 88 3d 67 c2 a4 be
       -0.66321254 0.44286123 0.06664368 -0.32179567
000240 66 1b 28 bf 96 90 6c 3e eb fd 7a bd a0 f8 2c bf
       -0.65666807 0.2310203 -0.06127731 -0.6756687
000250 3e 61 d5 3c 41 c2 8c be cc d4 da be e9 20 98 3e
       0.026047345 -0.27491954 -0.42740476 0.29712608
000260 9f a1 eb be 5a fe 1c 3f 02 d0 80 be be f4 25 be
       -0.46021745 0.6132561 -0.25158697 -0.16206643
000270 9c e3 ea 3e 4f 62 29 bf bd 2b 45 be 8a 56 02 3f
       0.45876777 -0.6616563 -0.19254966 0.509133
000280 ec c9 15 bf 00 a7 67 bd d4 d4 c6 3e ed fd e1 be
       -0.58511233 -0.056555748 0.3883425 -0.44139042
000290 e9 f1 9c be 21 c2 01 3f 34 91 33 bf 70 8a d1 be
       -0.30653313 0.5068684 -0.7014344 -0.40925932
0002a0 e6 89 81 3f 5c e9 27 bf 46 58 50 be 00 dc ad be
       1.0120208 -0.65590453 -0.20346174 -0.3395691
0002b0 c7 68 fd be 58 01 5d 3e 34 2b 7c be c4 49 56 bf
       -0.49494 0.21582544 -0.24625856 -0.8370631
0002c0 40 55 5c be b4 8a ec be 13 1d 85 bf 58 fe 3c be
       -0.21516895 -0.46199572 -1.0399498 -0.184564
0002d0 83 98 41 be 1a 09 3a be 5f 01 11 3e 49 66 8d 3d
       -0.18905835 -0.18167534 0.1416068 0.06904275
0002e0 ac a6 2b bf 7e c1 4d 3d f4 aa bc 3e 42 83 d1 be
       -0.67051196 0.050233357 0.36849177 -0.40920454
0002f0 1e 30 b1 be d3 e3 2c be 60 2a b7 3e ef 29 8a 3d
       -0.34607023 -0.16883783 0.35774517 0.067462794
000300 30 b5 09 bf be bb 95 bd 13 41 8b be 29 d8 0a bf
       -0.53792095 -0.073111996 -0.27198085 -0.54236084
000310 a1 e1 10 3e dd 6a a1 be 21 98 fa 3e 2e 64 4e 3f
       0.1414857 -0.31526843 0.4894419 0.8062161
000320 95 d3 76 3e 31 dc 48 3f 93 83 2b 3f 64 92 c5 3c
       0.2410415 0.78460985 0.6699764 0.024117656
000330 1b 42 09 3f 3a 92 72 3f d1 c3 85 3d 3b cf 60 3d
       0.53616494 0.94754374 0.0653149 0.05488513
000340 2e 43 dd be 07 49 d5 bc cc 95 ca be bb 72 2a bf
       -0.43215317 -0.026035799 -0.3956741 -0.66581315
000350 8c 30 4e be c5 2c 1f bf a1 6d 6e bf ad 6b a0 be
       -0.20135707 -0.6217769 -0.9313603 -0.3133215
000360 e3 2f f2 3c 05 30 be 3c 3f f0 ef be 38 b2 30 be
       0.02956385 0.023216257 -0.4686298 -0.17255485
000370 3c a0 2b bf ba 94 e6 be ea b8 de be c0 86 3d bf
       -0.67041373 -0.45035344 -0.43500453 -0.7403374
000380 63 02 0e bf 06 5a 5c bd 85 7c 8d be 44 70 dc be
       -0.5547239 -0.05379679 -0.27634063 -0.43054402
000390 b4 26 be 3d da a5 dd be bb 42 d9 be a3 4d 98 3d
       0.09284726 -0.43290597 -0.42433724 0.07436683
0003a0 01 23 c1 be c0 38 8b be ed e0 f7 be 22 ff 09 3e
       -0.37722018 -0.27191734 -0.48413792 0.13476232
0003b0 65 3f f9 be 10 5f 08 bf d0 14 49 be 69 97 1b bf
       -0.4868118 -0.53270054 -0.19636846 -0.6077791
0003c0 77 2c ef be 5f a5 07 bf f7 08 0d bf c2 6b 17 bf
       -0.4671361 -0.5298671 -0.55091804 -0.591488
0003d0 73 86 87 3e 2c 55 08 be 1f 74 bc be 10 cb b6 3e
       0.26469764 -0.1331374 -0.36807343 0.357018
0003e0 bf 0f c6 bd 29 6e 14 bf 18 fa 4b 3e 66 98 41 be
       -0.09670972 -0.5798059 0.19919622 -0.18905792
0003f0 cc 1e 93 bb 73 ef 42 3f cb 5c 17 3f da da 6f 3c
       -0.0044897553 0.7614662 0.59125966 0.014639581

sequential_2/conv1d_7/Conv1D f4 [10, 1, 3, 32]
000000 3d 5e 13 bd 5f 59 58 bb e2 55 af bd 5f 0c 81 3e
       -0.035978545 -0.0033012254 -0.08561303 0.2520475
000010 b7 c3 65 3e a4 5e 98 3d f3 80 19 3e 16 7c 54 bd
       0.2243794 0.07439926 0.14990596 -0.05187615
000020 57 c3 d7 bc fe 14 8d be 78 6d b6 3e 1f aa 68 3c
       -0.026338262 -0.27555078 0.35630393 0.014200716
000030 07 cf b6 3e 92 97 57 3e 4e 60 27 bc 6a b8 c6 bd
       0.35704824 0.21053913 -0.010215832 -0.09703143
000040 57 5b c9 3d eb af 6e 3e 79 ae 23 be 16 c2 ae 3e
       0.09831875 0.23309295 -0.15984525 0.3413245
000050 b4 96 37 bd 86 0d 7d 3e c7 44 93 3e 75 1b d2 3e
       -0.044821456 0.2471219 0.2876341 0.41036573
000060 7a 26 8e bc c2 7c 60 3e f6 b3 7e 3e d8 ef 32 3e
       -0.017352331 0.21922591 0.24873337 0.17474306
000070 64 34 87 3e 59 8e ea 3d 4d 6b 1d 3e 30 b7 ee bc
       0.26407158 0.11452932 0.15372963 -0.029140085
000080 7e e4 c9 3d 3f 3d 23 3f 0a 76 29 be d6 86 03 3f
       0.098580346 0.6376533 -0.16548935 0.5137762
000090 bf ca 4a 3e 35 f2 78 3e ab 04 ef 3e d0 c0 27 be
       0.19803904 0.24311145 0.4668325 -0.16382146
0000a0 d3 99 bc be 85 9b d0 be 0b 67 b0 3e a5 cd 1c 3d
       -0.3683611 -0.40743652 0.34453616 0.038282055
0000b0 f8 b2 87 3e 21 4b ff 3e 5b ef 6a 3e ca e5 65 3d
       0.2650373 0.49862006 0.2294287 0.056127347
0000c0 68 c0 c1 3d db 59 59 3d 54 59 86 3e d2 59 a0 3e
       0.09460527 0.05306421 0.26240027 0.31318527
0000d0 c0 ea 6a 3e 03 b7 6a 3e e1 18 07 bd 7c fc 30 3f
       0.22941113 0.22921376 -0.03298271 0.6913526
0000e0 d6 ef 23 3e 04 8a 26 3e 0d b4 1d 3f 58 fc 41 3e
       0.16009459 0.16263586 0.6160286 0.18943918
0000f0 a7 1c bf ba fe d8 05 3e 43 20 17 3f 03 cf 00 3e
       -0.0014580683 0.13071057 0.590336 0.12578969
000100 be ec 71 3d ec af 00 3f f5 df 31 3e 26 9f dd 3e
       0.059063666 0.50268435 0.17370589 0.43285483
000110 6e 36 ad 3d 52 17 04 3f 6f 99 25 3f c9 0a 80 be
       0.08457647 0.51598084 0.64687246 -0.25008228
000120 11 42 1c bd ec 8f 6a be 9d 74 c1 3e d3 38 84 3e
       -0.038148943 -0.22906464 0.3778428 0.25824603
000130 e2 36 db 3e d9 85 9d 3e a7 7c 26 be 14 ee 0c be
       0.4281531 0.3076618 -0.16258489 -0.13762695
000140 47 6b b5 3e 42 7f c3 3e 76 53 95 3e de db a1 3e
       0.3543341 0.38183028 0.29165238 0.31613058
000150 d2 9d ba 3e d9 c2 6c 3e 98 0e 70 3e 4a 6b 61 3f
       0.36448532 0.23121203 0.23443067 0.88054335
000160 c9 d0 d4 3e 72 a0 7f 3e 07 c6 30 3f a1 01 61 3e
       0.4156554 0.24963549 0.69052166 0.21973278
000170 25 56 98 3e 41 6d 47 3e 5a 9d 4f 3f ca 95 9a be
       0.29753223 0.19475271 0.81099474 -0.30192405
000180 fc 9a 8e bc d2 f6 71 3c 3e df cb bd cb 9e 10 3e
       -0.017407887 0.014768319 -0.099546894 0.14123075
000190 34 4c 09 3e b8 bc 90 3e 10 9b 16 3f 21 58 6a be
       0.13407975 0.2826898 0.58830357 -0.22885181
0001a0 88 58 3c be 42 73 fe 3a 79 ef 90 3e ff 90 ca 3e
       -0.18393147 0.0019413012 0.28307703 0.39563748
0001b0 73 97 c0 3e 80 08 87 3e ba b3 36 3e cb 38 c8 bd
       0.37615547 0.26373672 0.17841998 -0.097764574
0001c0 e6 19 38 3e af 7c 27 be 63 2d 20 be 8f 38 84 3e
       0.1797863 -0.16356157 -0.15642314 0.258244
0001d0 8a 93 24 be 38 14 e9 3e 60 bf 38 be 0f 7c a5 3e
       -0.16071907 0.45523238 -0.18041754 0.32321212
0001e0 ff b2 88 3e 7d f0 8f 3e b4 86 8a 3e ed 61 c0 3e
       0.26699063 0.28113165 0.27055895 0.3757471
0001f0 2d a0 a7 3e 24 47 b5 3e 4e 1f 72 3e 69 08 74 be
       0.32739392 0.35405838 0.23644754 -0.23831333
000200 56 ef 0e 3e 57 7f 1a 3f 0f 24 99 be c7 66 68 3c
       0.13958487 0.60350555 -0.29910323 0.01418466
000210 42 fb 07 bd b2 57 e2 3e 57 05 17 3f ae dc 1b be
       -0.033198602 0.4420753 0.5899252 -0.15220901
000220 be 0f 82 be 4b bf c3 be e5 f8 88 3e a9 54 0c 3d
       -0.25402635 -0.38231882 0.2675239 0.034260426
000230 4a 19 09 3f 39 45 2e 3f 91 5a e6 3d d4 37 39 3d
       0.53554213 0.68074375 0.11247743 0.045219257
000240 f4 87 0f 3f 1c fe 34 3e fc 6c 6c bd a0 a8 1a 3e
       0.56066823 0.1767506 -0.057721123 0.15103388
000250 33 6c 5b 3c fc f1 b2 3e 26 d5 f6 3d 38 78 c2 3e
       0.013392496 0.34950244 0.120523736 0.37982345
000260 9e 3c 9b 3e 18 8e 08 3d 0c b4 1e 3f 48 20 b2 3e
       0.30319685 0.033338636 0.6199348 0.34790254
000270 8e e5 53 3e 8b f5 a0 3d b0 dc 35 3f f4 69 30 bd
       0.20693037 0.078593336 0.7103987 -0.043069795
000280 40 6c 63 bd 99 14 26 3f b6 92 02 be 17 74 2d 3e
       -0.055523157 0.6487518 -0.12751278 0.16938816
000290 a1 06 b8 3e 4f 7e 20 3f 66 fa d7 3e e2 7d c8 be
       0.35942557 0.6269273 0.42183226 -0.3915854
0002a0 10 eb c5 be c5 d2 d7 be 3b 3d 37 3f 43 5c 81 3e
       -0.386559 -0.42152992 0.71577805 0.25265703
0002b0 10 dd 1f 3f e7 55 1a 3f 9b c9 de 3d 16 92 97 be
       0.6244669 0.60287327 0.10878297 -0.29603642
0002c0 ec 6a cb 3e c6 d5 d7 bc 80 d2 b2 3e ec b8 0c 3f
       0.39730012 -0.026347052 0.34926224 0.5496967
0002d0 67 4c 91 3d 6b da af 3e c8 eb 58 3e 4a aa 05 3f
       0.07094651 0.34346327 0.21183693 0.52212965
0002e0 31 00 8d 3e f6 87 51 3d bc 1e 40 3f c7 e3 05 3f
       0.2753921 0.051155053 0.75046897 0.52300686
0002f0 9d ca 92 bd b5 89 d9 3e 83 ba 33 3f f6 0e d4 3d
       -0.07167552 0.42487875 0.7020647 0.10354416
000300 6c 8d 0c 3f 35 9c b2 3c f5 6f 2b 3e a9 15 50 be
       0.5490329 0.021803001 0.16741927 -0.20320763
000310 00 3d d9 3e 65 be e7 bc b4 33 ac bd 2a 77 9a 3d
       0.42429352 -0.02828903 -0.08408299 0.0754226
000320 4a 76 c4 be df 25 8f bd e1 bf e1 3d d3 59 25 3e
       -0.38371497 -0.06989645 0.11022926 0.16147546
000330 84 ff 91 3d d9 e2 a0 3e 3e 00 78 bd a8 05 4a 3e
       0.07128814 0.3142307 -0.060547106 0.1972872
000340 15 9a 67 3e a8 8b 7f be a8 9e 72 3d 40 f2 bf be
       0.22617371 -0.24955618 0.059233338 -0.3748951
000350 32 df d6 3d a0 a6 31 3e 4b b6 2d 3f b6 40 2e bd
       0.1049179 0.17348719 0.6785628 -0.042542182
000360 d8 16 c4 be 43 76 4c be fa e5 1d 3c b8 51 5d 3e
       -0.38298678 -0.19966988 0.00963735 0.21613204
000370 cf d1 01 3f fa 62 12 3f ea 6b 10 3e 3a a9 05 3e
       0.5071077 0.57182276 0.14103666 0.13052836
000380 5e 08 37 3f 79 c5 84 3e 06 b5 04 3e 71 9c c8 bd
       0.7149714 0.2593191 0.1295968 -0.09795464
000390 9f 9a 30 3e c9 35 8e 3e 25 fa b5 3a 57 2b 8c 3e
       0.17246483 0.2777541 0.0013883753 0.27376816
0003a0 b0 e4 2a 3e 6f 45 a0 3e 9b 1b 1a bd 31 bf 36 3e
       0.166888 0.31302974 -0.037623983 0.17846371
0003b0 81 4e 7a 3e 5a 57 c5 bd 56 ed a7 3d b4 f7 f0 3e
       0.2444401 -0.096358016 0.08199565 0.47063982
0003c0 a2 bd aa 3e 2b 58 2c be fe 18 16 bd dd ff 9f be
       0.33347803 -0.16830508 -0.03664493 -0.31249896
0003d0 55 c3 b4 be 32 7c 58 3d f3 71 7c 3f d7 32 44 bd
       -0.35305277 0.052852817 0.9861137 -0.047900047
0003e0 49 59 7c be 55 0b 12 be de 80 23 be 57 b1 4f 3e
       -0.24643435 -0.14262135 -0.15967128 0.20282494
0003f0 92 78 5e 3f cd 2d 3b 3f 12 11 82 3e c2 ac fa 3e
       0.86902726 0.7311676 0.2540365 0.4895993

sequential_2/conv1d_8/Conv1D f4 [10, 1, 3, 10]
000000 0f 68 2f 3e a4 21 46 be 82 26 77 3e f1 ad 9d 3e
       0.17129539 -0.1934877 0.24135783 0.3079677
000010 c8 8a be 3a 97 ca 00 3f ce a2 86 3d dc 70 20 bd
       0.001453721 0.5030913 0.06574021 -0.03917013
000020 33 e2 b7 3c c1 82 9c 3e 03 15 fe bd ea f1 32 3e
       0.022446727 0.30568507 -0.124063514 0.17475095
000030 36 28 33 3f 77 3c 09 3f 48 81 2b be 12 b3 14 3f
       0.6998323 0.5360789 -0.16748536 0.5808574
000040 a8 fb ee 3d 9e 7b 86 3e 4f 80 71 3c 5c df 3b 3e
       0.11669093 0.26266187 0.014740064 0.18346924
000050 32 36 39 3e 5a 80 84 3c 2a b8 e8 3e dd fe ad 3e
       0.1808708 0.016174484 0.45453006 0.33983508
000060 49 85 c0 3e f6 80 05 3f 63 c5 13 be 00 7f 4a 3e
       0.37601689 0.52149904 -0.14430766 0.19775009
000070 e1 5b df 3d c9 61 d5 3e f3 8c 38 3e e9 1a e3 3e
       0.109061964 0.41676167 0.18022518 0.44356468
000080 c9 36 9d 3b 82 69 66 bc 58 5d 10 3e 09 58 9f 3e
       0.0047977907 -0.014063241 0.14098108 0.31121853
000090 d4 48 7d 3e 70 56 08 bd 42 63 c4 3d 11 b2 c8 be
       0.24734813 -0.03328556 0.095892444 -0.39198354
0000a0 b0 6c 1d 3f 74 e4 0e 3f fc 1c 96 3e 7c 78 6f be
       0.6149397 0.5581734 0.29318988 -0.23385805
0000b0 c5 65 8c 3d 47 f1 a8 bc 2e a9 36 be a9 45 6f bd
       0.068553485 -0.020622863 -0.17837974 -0.058416042
0000c0 0b 56 cf 3e 68 50 c7 be 0c fa 47 3d 8b 5d 2e 3f
       0.40495333 -0.38928533 0.048822448 0.68111485
0000d0 e2 29 2b be 66 8f c8 be ee 86 8f bc ef 2d 52 3e
       -0.16715196 -0.39171904 -0.017520394 0.20525335
0000e0 66 08 b0 bc 22 47 80 bc 7a 99 29 3f 26 5e 84 be
       -0.02148838 -0.015658919 0.6624981 -0.2585308
0000f0 b2 e9 8a bd 6e b8 40 be bd f9 5b 3e de 7f 7e 3e
       -0.06782855 -0.18820354 0.21481986 0.24853465
000100 96 d6 a6 3e 61 eb 4b bf da c1 e1 bc 8f 05 2c 3f
       0.3258559 -0.79656035 -0.027558256 0.6719598
000110 56 a3 f0 bd 57 a2 2c bf 70 19 7c 3e 52 08 3c be
       -0.11749904 -0.6743521 0.24619079 -0.18362549
000120 5f 52 5d be 9c 42 73 be 8d 56 3e 3e a7 43 1f bf
       -0.21613453 -0.23755878 0.18587704 -0.62212604
000130 fa 99 c4 3e 71 3f f3 3e 68 76 f4 3d 2e 52 79 be
       0.38398725 0.4750934 0.11936647 -0.24347755
000140 93 3a 71 3e 20 21 cc 3d 1d c1 14 bd 8b 4f 24 3d
       0.235575 0.099672556 -0.03631698 0.04011492
000150 20 a3 08 3f b2 62 40 bf 34 96 28 3f 79 ec f8 3e
       0.5337391 -0.751506 0.6585419 0.48617914
000160 d0 56 55 bd 0c f6 0a bf ff b2 a4 bd cf 2b 92 3e
       -0.052084744 -0.5428169 -0.08041953 0.28549048
000170 9a 80 df 3d 83 c6 09 be 17 05 ab 3e 08 c9 9e be
       0.10913201 -0.13454632 0.3340232 -0.3101275
000180 94 0f ad 3e aa 26 08 3d 75 6f 0f bd f8 ab 89 3e
       0.33800948 0.033239998 -0.035018403 0.26889014
000190 ef 37 37 3e 3d b9 64 3e 7e 9f 26 3e 1e 95 8e 3e
       0.1789243 0.22336288 0.16271779 0.27848142
0001a0 1a c5 e2 3d a3 fa 42 3e c9 1f 33 3f d3 39 e8 3e
       0.110727504 0.19040923 0.69970375 0.45356616
0001b0 f8 05 01 3f 66 59 74 3d cd f8 ef 3e 1c 7f 8f 3d
       0.5039973 0.05965557 0.46869507 0.07006666
0001c0 4c a5 19 be b3 e5 9c 3e 33 91 dc 3e 20 cb ae bd
       -0.15004462 0.30643997 0.43079528 -0.08534837
0001d0 a4 70 17 3f af f6 d0 3e f7 4c c6 3e cb e4 b2 bd
       0.5915625 0.40813205 0.38730595 -0.08735045
0001e0 fe dc 18 3e 5d d1 eb 3e a5 d2 2b 3e f1 59 88 3e
       0.14928052 0.4605817 0.16779573 0.2663112
0001f0 cc 38 83 be 77 43 13 3e 78 33 b2 bd ac 85 08 bf
       -0.2562927 0.14381205 -0.08701223 -0.5332897
000200 eb b9 db 3e 8f 3a bf bd 51 c4 86 3e 5d b3 ec 3b
       0.42915282 -0.09337341 0.26321653 0.00722353
000210 fb eb f4 3e 96 2d a9 3d 88 29 5e be b0 59 90 3e
       0.4783629 0.08260648 -0.2169553 0.28193426
000220 ba 33 c4 3e b4 2d d1 bd cf 33 e1 3e 19 06 98 3e
       0.38320714 -0.10213795 0.4398484 0.29692152
000230 bd 25 98 3e 71 4c fb bd c7 14 07 3e 00 3f 3c 3e
       0.29716292 -0.122704394 0.1319152 0.18383408
000240 82 8a d0 3d 4c 11 9e 3e bb 36 16 3d fc 55 f1 be
       0.10182668 0.3087257 0.03667329 -0.47135913
000250 19 1d 9a 3e ea 17 74 3e c5 0e 6f 3e 6e 05 b0 3e
       0.30100325 0.23837247 0.23345478 0.34379143
000260 32 7b 34 3e dc e8 87 3e 5d 9c a4 be 06 a7 5a 3d
       0.1762512 0.26544845 -0.32150546 0.053381942
000270 c8 52 1d be 22 61 90 be ec 36 b6 3d 35 b4 6a be
       -0.1536361 -0.28199106 0.08897194 -0.22920306
000280 84 54 fe 3e 78 73 d0 3e cf 10 41 bd c3 d5 cd 3c
       0.49673855 0.40713096 -0.04713517 0.025126344
000290 11 a7 93 be ee 25 d8 3c b6 49 39 3e c2 8a b6 3b
       -0.288384 0.026385274 0.18094525 0.0055707404
0002a0 48 7a 27 3f c8 e0 ca be 69 4d ea 3e 53 47 47 3f
       0.6542096 -0.3962462 0.45762184 0.7784321
0002b0 46 7b 33 3e 83 f0 86 be 15 ae 21 be 32 70 10 3e
       0.17527494 -0.2635537 -0.15789063 0.14105299
0002c0 a9 bc 0d be a5 00 83 be ed ba 57 3f 1b 7b 71 3e
       -0.138415 -0.2558643 0.842696 0.23582117
0002d0 3c 55 9a 3e 65 a9 9a 3c 97 b4 12 3f 35 51 11 3e
       0.30143154 0.018879602 0.5730681 0.14191134
0002e0 47 af 0e be e4 da df 3e 61 a4 5e 3e 62 45 1d bf
       -0.1393405 0.43721688 0.21742393 -0.61433995
0002f0 e4 ad e2 3e 75 61 30 3f ff b1 79 bd 3a 55 2d 3d
       0.44273293 0.6889871 -0.060960766 0.042317607
000300 58 f2 d1 bc 7b a0 b5 3e fe 43 64 be 20 ea 53 3e
       -0.025628254 0.35474 -0.22291562 0.2069478
000310 4b ca a2 3e ca 23 69 bc 8e 55 53 bd d1 72 5d 3e
       0.31794962 -0.014229724 -0.051595263 0.2162583
000320 42 7b 20 3e 69 9a ad 3c 67 4a 05 3f 74 af 9f 3c
       0.15672019 0.021191793 0.52066654 0.019492842
000330 b0 e1 82 be a6 79 ab 3e ae 0f 06 3e 3f b5 c2 be
       -0.2556281 0.33491248 0.13091919 -0.38028905
000340 d5 d5 ce bd fc 33 22 3f 2d 4f 54 be b5 82 86 be
       -0.10099379 0.6336057 -0.20733328 -0.26271597
000350 36 94 ed 3e 03 e4 0c 3f 49 d2 5e 3d 20 54 68 3e
       0.46402138 0.5503542 0.054399762 0.22688341
000360 45 04 af 3e 58 ed b7 be 51 60 2e 3e 00 28 9a bd
       0.34182945 -0.35923266 0.1702893 -0.07527161
000370 2a 4e 8b be 28 73 59 3e bf 46 dd 3e 2a c0 86 3e
       -0.27208072 0.21235335 0.43218037 0.26318485
000380 75 56 47 bc 8a 26 a3 3e 37 5a 58 be a8 9e 22 3e
       -0.012166609 0.3186534 -0.21128164 0.15880835
000390 94 d2 02 3e d5 b1 59 be 73 24 69 3c 3d 32 e2 bd
       0.12775642 -0.21259244 0.014229882 -0.110447384
0003a0 5d a0 be 3e 83 33 f0 3e 89 f8 9e 3e 24 47 bb 3e
       0.37231722 0.469143 0.31048992 0.36577713
0003b0 f1 28 fb 3d 6d 75 b1 be cd bb 4e bd a0 18 d1 bd
       0.12263668 -0.346599 -0.05047207 -0.10209775
0003c0 a4 e5 cc bd 16 aa 5c 3e ea 6e ef 3e 72 6d ef 3e
       -0.10004738 0.21549258 0.46764308 0.46763188
0003d0 d7 6c 33 be 21 27 47 be e3 ae 2b 3d 5d fa 8b 3e
       -0.17521988 -0.1944852 0.04191483 0.2733945
0003e0 a2 c1 35 be 09 e6 d9 be 00 53 67 3d 42 00 92 3e
       -0.17749646 -0.42558315 0.05647564 0.28515822
0003f0 48 1e 40 3e 7d 45 87 3e c3 0f a4 3e 20 15 ea 3e
       0.18761551 0.26420203 0.32043275 0.45719242

sequential_2/dense_5/BiasAdd/ReadVariableOp f4 [35]
000000 06 47 9b be 8f 99 ab bd 74 1c 47 3d a9 99 9e 3e
       -0.30327624 -0.08378898 0.04861112 0.30976608
000010 3b d7 ae be 50 1c 9a 3e 41 23 1a be a1 18 1d be
       -0.34148583 0.30099726 -0.15052511 -0.15341426
000020 d3 79 2a be b5 98 ca bd 75 fe 35 3e 1f bf c4 3c
       -0.16648035 -0.09892408 0.17772849 0.024016915
000030 74 11 3b bd c1 68 96 3e ad 10 25 be 26 6b 9a 3e
       -0.04567094 0.29376796 -0.16119643 0.30159873
000040 de b6 4c bc 0b f5 81 3e 57 ca ca bd c3 4c 66 bc
       -0.012494771 0.25382265 -0.099018745 -0.014056387
000050 e9 2c 21 be fd 13 12 bd 16 95 81 bd a6 7e 3c be
       -0.15739788 -0.035663594 -0.06327264 -0.18407688
000060 73 d3 41 3e 62 6e 8f 3e 1e 40 17 3e e5 04 12 be
       0.18928318 0.28013903 0.14770553 -0.1425968
000070 46 06 b4 3d 4d 24 f7 bd a2 5b 3d be fe 9f cf ba
       0.08790259 -0.12067471 -0.18491986 -0.0015840528
000080 4d ab 0f 3e 5f 69 d6 be 9e 2a 36 3d
       0.1403019 -0.41877267 0.044474237

sequential_2/dense_4/BiasAdd/ReadVariableOp f4 [10]
000000 b2 73 c4 ba a5 1f c6 bc d4 f1 0b 3e 3f 18 58 be
       -0.0014988093 -0.024185011 0.13666469 -0.21102999
000010 c8 0d 0d be 1a 73 35 3d ef 47 a3 bd 1f 49 14 3e
       -0.13774788 0.044299223 -0.079727046 0.14481018
000020 6b 92 2c 3d 33 17 b9 bd
       0.042131823 -0.09037628

sequential_2/dense_4/MatMul i1 [10, 150] scale=0.0045196353 zero_point=0
000000 11 1b 01 e3 f3 df 1e f9 18 d6 22 0a 00 11 15 15
       0.0768338 0.122030154 0.0045196353 -0.13106942 -0.05875526 -0.14914797 0.13558906 -0.03163745 0.108471245 -0.18982469 0.1536676 0.045196354 0.0 0.0768338 0.09491234 0.09491234
000010 ea e9 03 f7 1e 19 f6 f7 e9 fa eb 22 db 1b d5 15
       -0.09943198 -0.10395161 0.013558906 -0.040676717 0.13558906 0.112990886 -0.045196354 -0.040676717 -0.10395161 -0.027117811 -0.09491234 0.1536676 -0.16722651 0.122030154 -0.19434433 0.09491234
000020 00 23 10 1c 07 1f de 1e e0 eb d9 25 07 18 f9 29
       0.0 0.15818724 0.072314166 0.1265498 0.03163745 0.14010869 -0.1536676 0.13558906 -0.14462833 -0.09491234 -0.17626578 0.16722651 0.03163745 0.108471245 -0.03163745 0.18530504
000030 ec ef f8 1f df e0 07 db 0a f0 df 25 13 11 07 da
       -0.09039271 -0.0768338 -0.036157083 0.14010869 -0.14914797 -0.14462833 0.03163745 -0.16722651 0.045196354 -0.072314166 -0.14914797 0.16722651 0.085873075 0.0768338 0.03163745 -0.17174615
000040 f6 fa e4 df ee 02 de ff e5 fa 01 d6 e9 0e 11 1a
       -0.045196354 -0.027117811 -0.1265498 -0.14914797 -0.08135343 0.009039271 -0.1536676 -0.0045196353 -0.122030154 -0.027117811 0.0045196353 -0.18982469 -0.10395161 0.0632749 0.0768338 0.11751052
000050 11 f2 dd fe 03 e6 17 eb e3 f4 03 dc da db 25 f4
       0.0768338 -0.0632749 -0.15818724 -0.009039271 0.013558906 -0.11751052 0.10395161 -0.09491234 -0.13106942 -0.054235622 0.013558906 -0.16270687 -0.17174615 -0.16722651 0.16722651 -0.054235622
000060 25 06 e5 d9 23 e0 fd ed db 0f 05 de 10 0d ee db
       0.16722651 0.027117811 -0.122030154 -0.17626578 0.15818724 -0.14462833 -0.013558906 -0.085873075 -0.16722651 0.06779453 0.022598177 -0.1536676 0.072314166 0.05875526 -0.08135343 -0.16722651
000070 db f9 11 f2 09 fc d6 19 fe d7 1a 07 0b 0b 11 26
       -0.16722651 -0.03163745 0.0768338 -0.0632749 0.040676717 -0.018078541 -0.18982469 0.112990886 -0.009039271 -0.18530504 0.11751052 0.03163745 0.04971599 0.04971599 0.0768338 0.17174615
000080 d9 e5 14 20 16 10 f5 fe e4 1c 1c fd e7 0e 02 28
       -0.17626578 -0.122030154 0.09039271 0.14462833 0.09943198 0.072314166 -0.04971599 -0.009039271 -0.1265498 0.1265498 0.1265498 -0.013558906 -0.112990886 0.0632749 0.009039271 0.18078542
000090 df e1 da da 1c d6 d5 1a 1c 2a 0a f3 f9 0d d4 e7
       -0.14914797 -0.14010869 -0.17174615 -0.17174615 0.1265498 -0.18982469 -0.19434433 0.11751052 0.1265498 0.18982469 0.045196354 -0.05875526 -0.03163745 0.05875526 -0.19886395 -0.112990886
0000a0 f0 14 03 15 fa d7 ea f7 ca 12 f2 1e 0d 1d 14 db
       -0.072314166 0.09039271 0.013558906 0.09491234 -0.027117811 -0.18530504 -0.09943198 -0.040676717 -0.24406031 0.08135343 -0.0632749 0.13558906 0.05875526 0.13106942 0.09039271 -0.16722651
0000b0 d1 b3 02 d7 dc fa 06 19 ed 00 dd 92 ca ea d9 f2
       -0.21242286 -0.3480119 0.009039271 -0.18530504 -0.16270687 -0.027117811 0.027117811 0.112990886 -0.085873075 0.0 -0.15818724 -0.4971599 -0.24406031 -0.09943198 -0.17626578 -0.0632749
0000c0 1c 2b fe 07 d9 d5 f3 dd f1 d7 fa d8 0e 01 05 c9
       0.1265498 0.19434433 -0.009039271 0.03163745 -0.17626578 -0.19434433 -0.05875526 -0.15818724 -0.06779453 -0.18530504 -0.027117811 -0.18078542 0.0632749 0.0045196353 0.022598177 -0.24857995
0000d0 ef 0e 02 1a 20 17 fc f8 f5 a8 f4 00 e7 dc 01 f6
       -0.0768338 0.0632749 0.009039271 0.11751052 0.14462833 0.10395161 -0.018078541 -0.036157083 -0.04971599 -0.3977279 -0.054235622 0.0 -0.112990886 -0.16270687 0.0045196353 -0.045196354
0000e0 1d 0d df da d5 32 19 f1 25 2c 0f db 09 17 d0 fa
       0.13106942 0.05875526 -0.14914797 -0.17174615 -0.19434433 0.22598177 0.112990886 -0.06779453 0.16722651 0.19886395 0.06779453 -0.16722651 0.040676717 0.10395161 -0.21694249 -0.027117811
0000f0 c9 d5 00 e4 ba fc fa f0 d6 13 15 29 1a 21 f6 30
       -0.24857995 -0.19434433 0.0 -0.1265498 -0.31637448 -0.018078541 -0.027117811 -0.072314166 -0.18982469 0.085873075 0.09491234 0.18530504 0.11751052 0.14914797 -0.045196354 0.21694249
